/bin/sh: 1: pythont: not found
Device being used: cuda
Training s3d from scratch...
Training s3d from scratch...
Total params: 8.37M
S3D(
  (features): Sequential(
    (0): TemporalSeparableConv(
      (0): Conv3dNormActivation(
        (0): Conv3d(3, 64, kernel_size=(1, 7, 7), stride=(1, 2, 2), padding=(0, 3, 3), bias=False)
        (1): BatchNorm3d(64, eps=0.001, momentum=0.001, affine=True, track_running_stats=True)
        (2): ReLU(inplace=True)
      )
      (1): Conv3dNormActivation(
        (0): Conv3d(64, 64, kernel_size=(7, 1, 1), stride=(2, 1, 1), padding=(3, 0, 0), bias=False)
        (1): BatchNorm3d(64, eps=0.001, momentum=0.001, affine=True, track_running_stats=True)
        (2): ReLU(inplace=True)
      )
    )
    (1): MaxPool3d(kernel_size=(1, 3, 3), stride=(1, 2, 2), padding=(0, 1, 1), dilation=1, ceil_mode=False)
    (2): Conv3dNormActivation(
      (0): Conv3d(64, 64, kernel_size=(1, 1, 1), stride=(1, 1, 1), bias=False)
      (1): BatchNorm3d(64, eps=0.001, momentum=0.001, affine=True, track_running_stats=True)
      (2): ReLU(inplace=True)
    )
    (3): TemporalSeparableConv(
      (0): Conv3dNormActivation(
        (0): Conv3d(64, 192, kernel_size=(1, 3, 3), stride=(1, 1, 1), padding=(0, 1, 1), bias=False)
        (1): BatchNorm3d(192, eps=0.001, momentum=0.001, affine=True, track_running_stats=True)
        (2): ReLU(inplace=True)
      )
      (1): Conv3dNormActivation(
        (0): Conv3d(192, 192, kernel_size=(3, 1, 1), stride=(1, 1, 1), padding=(1, 0, 0), bias=False)
        (1): BatchNorm3d(192, eps=0.001, momentum=0.001, affine=True, track_running_stats=True)
        (2): ReLU(inplace=True)
      )
    )
    (4): MaxPool3d(kernel_size=(1, 3, 3), stride=(1, 2, 2), padding=(0, 1, 1), dilation=1, ceil_mode=False)
    (5): SepInceptionBlock3D(
      (branch0): Conv3dNormActivation(
        (0): Conv3d(192, 64, kernel_size=(1, 1, 1), stride=(1, 1, 1), bias=False)
        (1): BatchNorm3d(64, eps=0.001, momentum=0.001, affine=True, track_running_stats=True)
        (2): ReLU(inplace=True)
      )
      (branch1): Sequential(
        (0): Conv3dNormActivation(
          (0): Conv3d(192, 96, kernel_size=(1, 1, 1), stride=(1, 1, 1), bias=False)
          (1): BatchNorm3d(96, eps=0.001, momentum=0.001, affine=True, track_running_stats=True)
          (2): ReLU(inplace=True)
        )
        (1): TemporalSeparableConv(
          (0): Conv3dNormActivation(
            (0): Conv3d(96, 128, kernel_size=(1, 3, 3), stride=(1, 1, 1), padding=(0, 1, 1), bias=False)
            (1): BatchNorm3d(128, eps=0.001, momentum=0.001, affine=True, track_running_stats=True)
            (2): ReLU(inplace=True)
          )
          (1): Conv3dNormActivation(
            (0): Conv3d(128, 128, kernel_size=(3, 1, 1), stride=(1, 1, 1), padding=(1, 0, 0), bias=False)
            (1): BatchNorm3d(128, eps=0.001, momentum=0.001, affine=True, track_running_stats=True)
            (2): ReLU(inplace=True)
          )
        )
      )
      (branch2): Sequential(
        (0): Conv3dNormActivation(
          (0): Conv3d(192, 16, kernel_size=(1, 1, 1), stride=(1, 1, 1), bias=False)
          (1): BatchNorm3d(16, eps=0.001, momentum=0.001, affine=True, track_running_stats=True)
          (2): ReLU(inplace=True)
        )
        (1): TemporalSeparableConv(
          (0): Conv3dNormActivation(
            (0): Conv3d(16, 32, kernel_size=(1, 3, 3), stride=(1, 1, 1), padding=(0, 1, 1), bias=False)
            (1): BatchNorm3d(32, eps=0.001, momentum=0.001, affine=True, track_running_stats=True)
            (2): ReLU(inplace=True)
          )
          (1): Conv3dNormActivation(
            (0): Conv3d(32, 32, kernel_size=(3, 1, 1), stride=(1, 1, 1), padding=(1, 0, 0), bias=False)
            (1): BatchNorm3d(32, eps=0.001, momentum=0.001, affine=True, track_running_stats=True)
            (2): ReLU(inplace=True)
          )
        )
      )
      (branch3): Sequential(
        (0): MaxPool3d(kernel_size=(3, 3, 3), stride=1, padding=1, dilation=1, ceil_mode=False)
        (1): Conv3dNormActivation(
          (0): Conv3d(192, 32, kernel_size=(1, 1, 1), stride=(1, 1, 1), bias=False)
          (1): BatchNorm3d(32, eps=0.001, momentum=0.001, affine=True, track_running_stats=True)
          (2): ReLU(inplace=True)
        )
      )
    )
    (6): SepInceptionBlock3D(
      (branch0): Conv3dNormActivation(
        (0): Conv3d(256, 128, kernel_size=(1, 1, 1), stride=(1, 1, 1), bias=False)
        (1): BatchNorm3d(128, eps=0.001, momentum=0.001, affine=True, track_running_stats=True)
        (2): ReLU(inplace=True)
      )
      (branch1): Sequential(
        (0): Conv3dNormActivation(
          (0): Conv3d(256, 128, kernel_size=(1, 1, 1), stride=(1, 1, 1), bias=False)
          (1): BatchNorm3d(128, eps=0.001, momentum=0.001, affine=True, track_running_stats=True)
          (2): ReLU(inplace=True)
        )
        (1): TemporalSeparableConv(
          (0): Conv3dNormActivation(
            (0): Conv3d(128, 192, kernel_size=(1, 3, 3), stride=(1, 1, 1), padding=(0, 1, 1), bias=False)
            (1): BatchNorm3d(192, eps=0.001, momentum=0.001, affine=True, track_running_stats=True)
            (2): ReLU(inplace=True)
          )
          (1): Conv3dNormActivation(
            (0): Conv3d(192, 192, kernel_size=(3, 1, 1), stride=(1, 1, 1), padding=(1, 0, 0), bias=False)
            (1): BatchNorm3d(192, eps=0.001, momentum=0.001, affine=True, track_running_stats=True)
            (2): ReLU(inplace=True)
          )
        )
      )
      (branch2): Sequential(
        (0): Conv3dNormActivation(
          (0): Conv3d(256, 32, kernel_size=(1, 1, 1), stride=(1, 1, 1), bias=False)
          (1): BatchNorm3d(32, eps=0.001, momentum=0.001, affine=True, track_running_stats=True)
          (2): ReLU(inplace=True)
        )
        (1): TemporalSeparableConv(
          (0): Conv3dNormActivation(
            (0): Conv3d(32, 96, kernel_size=(1, 3, 3), stride=(1, 1, 1), padding=(0, 1, 1), bias=False)
            (1): BatchNorm3d(96, eps=0.001, momentum=0.001, affine=True, track_running_stats=True)
            (2): ReLU(inplace=True)
          )
          (1): Conv3dNormActivation(
            (0): Conv3d(96, 96, kernel_size=(3, 1, 1), stride=(1, 1, 1), padding=(1, 0, 0), bias=False)
            (1): BatchNorm3d(96, eps=0.001, momentum=0.001, affine=True, track_running_stats=True)
            (2): ReLU(inplace=True)
          )
        )
      )
      (branch3): Sequential(
        (0): MaxPool3d(kernel_size=(3, 3, 3), stride=1, padding=1, dilation=1, ceil_mode=False)
        (1): Conv3dNormActivation(
          (0): Conv3d(256, 64, kernel_size=(1, 1, 1), stride=(1, 1, 1), bias=False)
          (1): BatchNorm3d(64, eps=0.001, momentum=0.001, affine=True, track_running_stats=True)
          (2): ReLU(inplace=True)
        )
      )
    )
    (7): MaxPool3d(kernel_size=(3, 3, 3), stride=(2, 2, 2), padding=(1, 1, 1), dilation=1, ceil_mode=False)
    (8): SepInceptionBlock3D(
      (branch0): Conv3dNormActivation(
        (0): Conv3d(480, 192, kernel_size=(1, 1, 1), stride=(1, 1, 1), bias=False)
        (1): BatchNorm3d(192, eps=0.001, momentum=0.001, affine=True, track_running_stats=True)
        (2): ReLU(inplace=True)
      )
      (branch1): Sequential(
        (0): Conv3dNormActivation(
          (0): Conv3d(480, 96, kernel_size=(1, 1, 1), stride=(1, 1, 1), bias=False)
          (1): BatchNorm3d(96, eps=0.001, momentum=0.001, affine=True, track_running_stats=True)
          (2): ReLU(inplace=True)
        )
        (1): TemporalSeparableConv(
          (0): Conv3dNormActivation(
            (0): Conv3d(96, 208, kernel_size=(1, 3, 3), stride=(1, 1, 1), padding=(0, 1, 1), bias=False)
            (1): BatchNorm3d(208, eps=0.001, momentum=0.001, affine=True, track_running_stats=True)
            (2): ReLU(inplace=True)
          )
          (1): Conv3dNormActivation(
            (0): Conv3d(208, 208, kernel_size=(3, 1, 1), stride=(1, 1, 1), padding=(1, 0, 0), bias=False)
            (1): BatchNorm3d(208, eps=0.001, momentum=0.001, affine=True, track_running_stats=True)
            (2): ReLU(inplace=True)
          )
        )
      )
      (branch2): Sequential(
        (0): Conv3dNormActivation(
          (0): Conv3d(480, 16, kernel_size=(1, 1, 1), stride=(1, 1, 1), bias=False)
          (1): BatchNorm3d(16, eps=0.001, momentum=0.001, affine=True, track_running_stats=True)
          (2): ReLU(inplace=True)
        )
        (1): TemporalSeparableConv(
          (0): Conv3dNormActivation(
            (0): Conv3d(16, 48, kernel_size=(1, 3, 3), stride=(1, 1, 1), padding=(0, 1, 1), bias=False)
            (1): BatchNorm3d(48, eps=0.001, momentum=0.001, affine=True, track_running_stats=True)
            (2): ReLU(inplace=True)
          )
          (1): Conv3dNormActivation(
            (0): Conv3d(48, 48, kernel_size=(3, 1, 1), stride=(1, 1, 1), padding=(1, 0, 0), bias=False)
            (1): BatchNorm3d(48, eps=0.001, momentum=0.001, affine=True, track_running_stats=True)
            (2): ReLU(inplace=True)
          )
        )
      )
      (branch3): Sequential(
        (0): MaxPool3d(kernel_size=(3, 3, 3), stride=1, padding=1, dilation=1, ceil_mode=False)
        (1): Conv3dNormActivation(
          (0): Conv3d(480, 64, kernel_size=(1, 1, 1), stride=(1, 1, 1), bias=False)
          (1): BatchNorm3d(64, eps=0.001, momentum=0.001, affine=True, track_running_stats=True)
          (2): ReLU(inplace=True)
        )
      )
    )
    (9): SepInceptionBlock3D(
      (branch0): Conv3dNormActivation(
        (0): Conv3d(512, 160, kernel_size=(1, 1, 1), stride=(1, 1, 1), bias=False)
        (1): BatchNorm3d(160, eps=0.001, momentum=0.001, affine=True, track_running_stats=True)
        (2): ReLU(inplace=True)
      )
      (branch1): Sequential(
        (0): Conv3dNormActivation(
          (0): Conv3d(512, 112, kernel_size=(1, 1, 1), stride=(1, 1, 1), bias=False)
          (1): BatchNorm3d(112, eps=0.001, momentum=0.001, affine=True, track_running_stats=True)
          (2): ReLU(inplace=True)
        )
        (1): TemporalSeparableConv(
          (0): Conv3dNormActivation(
            (0): Conv3d(112, 224, kernel_size=(1, 3, 3), stride=(1, 1, 1), padding=(0, 1, 1), bias=False)
            (1): BatchNorm3d(224, eps=0.001, momentum=0.001, affine=True, track_running_stats=True)
            (2): ReLU(inplace=True)
          )
          (1): Conv3dNormActivation(
            (0): Conv3d(224, 224, kernel_size=(3, 1, 1), stride=(1, 1, 1), padding=(1, 0, 0), bias=False)
            (1): BatchNorm3d(224, eps=0.001, momentum=0.001, affine=True, track_running_stats=True)
            (2): ReLU(inplace=True)
          )
        )
      )
      (branch2): Sequential(
        (0): Conv3dNormActivation(
          (0): Conv3d(512, 24, kernel_size=(1, 1, 1), stride=(1, 1, 1), bias=False)
          (1): BatchNorm3d(24, eps=0.001, momentum=0.001, affine=True, track_running_stats=True)
          (2): ReLU(inplace=True)
        )
        (1): TemporalSeparableConv(
          (0): Conv3dNormActivation(
            (0): Conv3d(24, 64, kernel_size=(1, 3, 3), stride=(1, 1, 1), padding=(0, 1, 1), bias=False)
            (1): BatchNorm3d(64, eps=0.001, momentum=0.001, affine=True, track_running_stats=True)
            (2): ReLU(inplace=True)
          )
          (1): Conv3dNormActivation(
            (0): Conv3d(64, 64, kernel_size=(3, 1, 1), stride=(1, 1, 1), padding=(1, 0, 0), bias=False)
            (1): BatchNorm3d(64, eps=0.001, momentum=0.001, affine=True, track_running_stats=True)
            (2): ReLU(inplace=True)
          )
        )
      )
      (branch3): Sequential(
        (0): MaxPool3d(kernel_size=(3, 3, 3), stride=1, padding=1, dilation=1, ceil_mode=False)
        (1): Conv3dNormActivation(
          (0): Conv3d(512, 64, kernel_size=(1, 1, 1), stride=(1, 1, 1), bias=False)
          (1): BatchNorm3d(64, eps=0.001, momentum=0.001, affine=True, track_running_stats=True)
          (2): ReLU(inplace=True)
        )
      )
    )
    (10): SepInceptionBlock3D(
      (branch0): Conv3dNormActivation(
        (0): Conv3d(512, 128, kernel_size=(1, 1, 1), stride=(1, 1, 1), bias=False)
        (1): BatchNorm3d(128, eps=0.001, momentum=0.001, affine=True, track_running_stats=True)
        (2): ReLU(inplace=True)
      )
      (branch1): Sequential(
        (0): Conv3dNormActivation(
          (0): Conv3d(512, 128, kernel_size=(1, 1, 1), stride=(1, 1, 1), bias=False)
          (1): BatchNorm3d(128, eps=0.001, momentum=0.001, affine=True, track_running_stats=True)
          (2): ReLU(inplace=True)
        )
        (1): TemporalSeparableConv(
          (0): Conv3dNormActivation(
            (0): Conv3d(128, 256, kernel_size=(1, 3, 3), stride=(1, 1, 1), padding=(0, 1, 1), bias=False)
            (1): BatchNorm3d(256, eps=0.001, momentum=0.001, affine=True, track_running_stats=True)
            (2): ReLU(inplace=True)
          )
          (1): Conv3dNormActivation(
            (0): Conv3d(256, 256, kernel_size=(3, 1, 1), stride=(1, 1, 1), padding=(1, 0, 0), bias=False)
            (1): BatchNorm3d(256, eps=0.001, momentum=0.001, affine=True, track_running_stats=True)
            (2): ReLU(inplace=True)
          )
        )
      )
      (branch2): Sequential(
        (0): Conv3dNormActivation(
          (0): Conv3d(512, 24, kernel_size=(1, 1, 1), stride=(1, 1, 1), bias=False)
          (1): BatchNorm3d(24, eps=0.001, momentum=0.001, affine=True, track_running_stats=True)
          (2): ReLU(inplace=True)
        )
        (1): TemporalSeparableConv(
          (0): Conv3dNormActivation(
            (0): Conv3d(24, 64, kernel_size=(1, 3, 3), stride=(1, 1, 1), padding=(0, 1, 1), bias=False)
            (1): BatchNorm3d(64, eps=0.001, momentum=0.001, affine=True, track_running_stats=True)
            (2): ReLU(inplace=True)
          )
          (1): Conv3dNormActivation(
            (0): Conv3d(64, 64, kernel_size=(3, 1, 1), stride=(1, 1, 1), padding=(1, 0, 0), bias=False)
            (1): BatchNorm3d(64, eps=0.001, momentum=0.001, affine=True, track_running_stats=True)
            (2): ReLU(inplace=True)
          )
        )
      )
      (branch3): Sequential(
        (0): MaxPool3d(kernel_size=(3, 3, 3), stride=1, padding=1, dilation=1, ceil_mode=False)
        (1): Conv3dNormActivation(
          (0): Conv3d(512, 64, kernel_size=(1, 1, 1), stride=(1, 1, 1), bias=False)
          (1): BatchNorm3d(64, eps=0.001, momentum=0.001, affine=True, track_running_stats=True)
          (2): ReLU(inplace=True)
        )
      )
    )
    (11): SepInceptionBlock3D(
      (branch0): Conv3dNormActivation(
        (0): Conv3d(512, 112, kernel_size=(1, 1, 1), stride=(1, 1, 1), bias=False)
        (1): BatchNorm3d(112, eps=0.001, momentum=0.001, affine=True, track_running_stats=True)
        (2): ReLU(inplace=True)
      )
      (branch1): Sequential(
        (0): Conv3dNormActivation(
          (0): Conv3d(512, 144, kernel_size=(1, 1, 1), stride=(1, 1, 1), bias=False)
          (1): BatchNorm3d(144, eps=0.001, momentum=0.001, affine=True, track_running_stats=True)
          (2): ReLU(inplace=True)
        )
        (1): TemporalSeparableConv(
          (0): Conv3dNormActivation(
            (0): Conv3d(144, 288, kernel_size=(1, 3, 3), stride=(1, 1, 1), padding=(0, 1, 1), bias=False)
            (1): BatchNorm3d(288, eps=0.001, momentum=0.001, affine=True, track_running_stats=True)
            (2): ReLU(inplace=True)
          )
          (1): Conv3dNormActivation(
            (0): Conv3d(288, 288, kernel_size=(3, 1, 1), stride=(1, 1, 1), padding=(1, 0, 0), bias=False)
            (1): BatchNorm3d(288, eps=0.001, momentum=0.001, affine=True, track_running_stats=True)
            (2): ReLU(inplace=True)
          )
        )
      )
      (branch2): Sequential(
        (0): Conv3dNormActivation(
          (0): Conv3d(512, 32, kernel_size=(1, 1, 1), stride=(1, 1, 1), bias=False)
          (1): BatchNorm3d(32, eps=0.001, momentum=0.001, affine=True, track_running_stats=True)
          (2): ReLU(inplace=True)
        )
        (1): TemporalSeparableConv(
          (0): Conv3dNormActivation(
            (0): Conv3d(32, 64, kernel_size=(1, 3, 3), stride=(1, 1, 1), padding=(0, 1, 1), bias=False)
            (1): BatchNorm3d(64, eps=0.001, momentum=0.001, affine=True, track_running_stats=True)
            (2): ReLU(inplace=True)
          )
          (1): Conv3dNormActivation(
            (0): Conv3d(64, 64, kernel_size=(3, 1, 1), stride=(1, 1, 1), padding=(1, 0, 0), bias=False)
            (1): BatchNorm3d(64, eps=0.001, momentum=0.001, affine=True, track_running_stats=True)
            (2): ReLU(inplace=True)
          )
        )
      )
      (branch3): Sequential(
        (0): MaxPool3d(kernel_size=(3, 3, 3), stride=1, padding=1, dilation=1, ceil_mode=False)
        (1): Conv3dNormActivation(
          (0): Conv3d(512, 64, kernel_size=(1, 1, 1), stride=(1, 1, 1), bias=False)
          (1): BatchNorm3d(64, eps=0.001, momentum=0.001, affine=True, track_running_stats=True)
          (2): ReLU(inplace=True)
        )
      )
    )
    (12): SepInceptionBlock3D(
      (branch0): Conv3dNormActivation(
        (0): Conv3d(528, 256, kernel_size=(1, 1, 1), stride=(1, 1, 1), bias=False)
        (1): BatchNorm3d(256, eps=0.001, momentum=0.001, affine=True, track_running_stats=True)
        (2): ReLU(inplace=True)
      )
      (branch1): Sequential(
        (0): Conv3dNormActivation(
          (0): Conv3d(528, 160, kernel_size=(1, 1, 1), stride=(1, 1, 1), bias=False)
          (1): BatchNorm3d(160, eps=0.001, momentum=0.001, affine=True, track_running_stats=True)
          (2): ReLU(inplace=True)
        )
        (1): TemporalSeparableConv(
          (0): Conv3dNormActivation(
            (0): Conv3d(160, 320, kernel_size=(1, 3, 3), stride=(1, 1, 1), padding=(0, 1, 1), bias=False)
            (1): BatchNorm3d(320, eps=0.001, momentum=0.001, affine=True, track_running_stats=True)
            (2): ReLU(inplace=True)
          )
          (1): Conv3dNormActivation(
            (0): Conv3d(320, 320, kernel_size=(3, 1, 1), stride=(1, 1, 1), padding=(1, 0, 0), bias=False)
            (1): BatchNorm3d(320, eps=0.001, momentum=0.001, affine=True, track_running_stats=True)
            (2): ReLU(inplace=True)
          )
        )
      )
      (branch2): Sequential(
        (0): Conv3dNormActivation(
          (0): Conv3d(528, 32, kernel_size=(1, 1, 1), stride=(1, 1, 1), bias=False)
          (1): BatchNorm3d(32, eps=0.001, momentum=0.001, affine=True, track_running_stats=True)
          (2): ReLU(inplace=True)
        )
        (1): TemporalSeparableConv(
          (0): Conv3dNormActivation(
            (0): Conv3d(32, 128, kernel_size=(1, 3, 3), stride=(1, 1, 1), padding=(0, 1, 1), bias=False)
            (1): BatchNorm3d(128, eps=0.001, momentum=0.001, affine=True, track_running_stats=True)
            (2): ReLU(inplace=True)
          )
          (1): Conv3dNormActivation(
            (0): Conv3d(128, 128, kernel_size=(3, 1, 1), stride=(1, 1, 1), padding=(1, 0, 0), bias=False)
            (1): BatchNorm3d(128, eps=0.001, momentum=0.001, affine=True, track_running_stats=True)
            (2): ReLU(inplace=True)
          )
        )
      )
      (branch3): Sequential(
        (0): MaxPool3d(kernel_size=(3, 3, 3), stride=1, padding=1, dilation=1, ceil_mode=False)
        (1): Conv3dNormActivation(
          (0): Conv3d(528, 128, kernel_size=(1, 1, 1), stride=(1, 1, 1), bias=False)
          (1): BatchNorm3d(128, eps=0.001, momentum=0.001, affine=True, track_running_stats=True)
          (2): ReLU(inplace=True)
        )
      )
    )
    (13): MaxPool3d(kernel_size=(2, 2, 2), stride=(2, 2, 2), padding=(0, 0, 0), dilation=1, ceil_mode=False)
    (14): SepInceptionBlock3D(
      (branch0): Conv3dNormActivation(
        (0): Conv3d(832, 256, kernel_size=(1, 1, 1), stride=(1, 1, 1), bias=False)
        (1): BatchNorm3d(256, eps=0.001, momentum=0.001, affine=True, track_running_stats=True)
        (2): ReLU(inplace=True)
      )
      (branch1): Sequential(
        (0): Conv3dNormActivation(
          (0): Conv3d(832, 160, kernel_size=(1, 1, 1), stride=(1, 1, 1), bias=False)
          (1): BatchNorm3d(160, eps=0.001, momentum=0.001, affine=True, track_running_stats=True)
          (2): ReLU(inplace=True)
        )
        (1): TemporalSeparableConv(
          (0): Conv3dNormActivation(
            (0): Conv3d(160, 320, kernel_size=(1, 3, 3), stride=(1, 1, 1), padding=(0, 1, 1), bias=False)
            (1): BatchNorm3d(320, eps=0.001, momentum=0.001, affine=True, track_running_stats=True)
            (2): ReLU(inplace=True)
          )
          (1): Conv3dNormActivation(
            (0): Conv3d(320, 320, kernel_size=(3, 1, 1), stride=(1, 1, 1), padding=(1, 0, 0), bias=False)
            (1): BatchNorm3d(320, eps=0.001, momentum=0.001, affine=True, track_running_stats=True)
            (2): ReLU(inplace=True)
          )
        )
      )
      (branch2): Sequential(
        (0): Conv3dNormActivation(
          (0): Conv3d(832, 32, kernel_size=(1, 1, 1), stride=(1, 1, 1), bias=False)
          (1): BatchNorm3d(32, eps=0.001, momentum=0.001, affine=True, track_running_stats=True)
          (2): ReLU(inplace=True)
        )
        (1): TemporalSeparableConv(
          (0): Conv3dNormActivation(
            (0): Conv3d(32, 128, kernel_size=(1, 3, 3), stride=(1, 1, 1), padding=(0, 1, 1), bias=False)
            (1): BatchNorm3d(128, eps=0.001, momentum=0.001, affine=True, track_running_stats=True)
            (2): ReLU(inplace=True)
          )
          (1): Conv3dNormActivation(
            (0): Conv3d(128, 128, kernel_size=(3, 1, 1), stride=(1, 1, 1), padding=(1, 0, 0), bias=False)
            (1): BatchNorm3d(128, eps=0.001, momentum=0.001, affine=True, track_running_stats=True)
            (2): ReLU(inplace=True)
          )
        )
      )
      (branch3): Sequential(
        (0): MaxPool3d(kernel_size=(3, 3, 3), stride=1, padding=1, dilation=1, ceil_mode=False)
        (1): Conv3dNormActivation(
          (0): Conv3d(832, 128, kernel_size=(1, 1, 1), stride=(1, 1, 1), bias=False)
          (1): BatchNorm3d(128, eps=0.001, momentum=0.001, affine=True, track_running_stats=True)
          (2): ReLU(inplace=True)
        )
      )
    )
    (15): SepInceptionBlock3D(
      (branch0): Conv3dNormActivation(
        (0): Conv3d(832, 384, kernel_size=(1, 1, 1), stride=(1, 1, 1), bias=False)
        (1): BatchNorm3d(384, eps=0.001, momentum=0.001, affine=True, track_running_stats=True)
        (2): ReLU(inplace=True)
      )
      (branch1): Sequential(
        (0): Conv3dNormActivation(
          (0): Conv3d(832, 192, kernel_size=(1, 1, 1), stride=(1, 1, 1), bias=False)
          (1): BatchNorm3d(192, eps=0.001, momentum=0.001, affine=True, track_running_stats=True)
          (2): ReLU(inplace=True)
        )
        (1): TemporalSeparableConv(
          (0): Conv3dNormActivation(
            (0): Conv3d(192, 384, kernel_size=(1, 3, 3), stride=(1, 1, 1), padding=(0, 1, 1), bias=False)
            (1): BatchNorm3d(384, eps=0.001, momentum=0.001, affine=True, track_running_stats=True)
            (2): ReLU(inplace=True)
          )
          (1): Conv3dNormActivation(
            (0): Conv3d(384, 384, kernel_size=(3, 1, 1), stride=(1, 1, 1), padding=(1, 0, 0), bias=False)
            (1): BatchNorm3d(384, eps=0.001, momentum=0.001, affine=True, track_running_stats=True)
            (2): ReLU(inplace=True)
          )
        )
      )
      (branch2): Sequential(
        (0): Conv3dNormActivation(
          (0): Conv3d(832, 48, kernel_size=(1, 1, 1), stride=(1, 1, 1), bias=False)
          (1): BatchNorm3d(48, eps=0.001, momentum=0.001, affine=True, track_running_stats=True)
          (2): ReLU(inplace=True)
        )
        (1): TemporalSeparableConv(
          (0): Conv3dNormActivation(
            (0): Conv3d(48, 128, kernel_size=(1, 3, 3), stride=(1, 1, 1), padding=(0, 1, 1), bias=False)
            (1): BatchNorm3d(128, eps=0.001, momentum=0.001, affine=True, track_running_stats=True)
            (2): ReLU(inplace=True)
          )
          (1): Conv3dNormActivation(
            (0): Conv3d(128, 128, kernel_size=(3, 1, 1), stride=(1, 1, 1), padding=(1, 0, 0), bias=False)
            (1): BatchNorm3d(128, eps=0.001, momentum=0.001, affine=True, track_running_stats=True)
            (2): ReLU(inplace=True)
          )
        )
      )
      (branch3): Sequential(
        (0): MaxPool3d(kernel_size=(3, 3, 3), stride=1, padding=1, dilation=1, ceil_mode=False)
        (1): Conv3dNormActivation(
          (0): Conv3d(832, 128, kernel_size=(1, 1, 1), stride=(1, 1, 1), bias=False)
          (1): BatchNorm3d(128, eps=0.001, momentum=0.001, affine=True, track_running_stats=True)
          (2): ReLU(inplace=True)
        )
      )
    )
  )
  (avgpool): AvgPool3d(kernel_size=(2, 7, 7), stride=1, padding=0)
  (classifier): Sequential(
    (0): Dropout(p=0.2, inplace=False)
    (1): Conv3d(1024, 400, kernel_size=(1, 1, 1), stride=(1, 1, 1))
  )
  (fc): Linear(in_features=512, out_features=101, bias=True)
)


Training model on ucf101 dataset...
Number of train videos: 9537
Number of test videos: 3783
torch.Size([20, 3, 16, 224, 224]) torch.Size([20])


  0%|          | 0/477 [00:00<?, ?it/s]  0%|          | 1/477 [00:06<54:21,  6.85s/it]  0%|          | 2/477 [00:08<30:24,  3.84s/it]  1%|          | 3/477 [00:10<22:21,  2.83s/it]  1%|          | 4/
…
