…
████▌  | 100M/132M [00:06<00:01, 20.2MB/s]  78%|███████▊  | 103M/132M [00:06<00:01, 20.6MB/s] 81%|████████  | 107M/132M [00:06<00:01, 20.9MB/s] 84%|████████▍ | 111M/132M [00:06<00:01, 21.1MB/s] 87%|████████▋ | 115M/132M [00:06<00:00, 21.2MB/s] 89%|████████▉ | 117M/132M [00:07<00:00, 18.9MB/s] 92%|█████████▏| 121M/132M [00:07<00:00, 20.1MB/s] 95%|█████████▍| 125M/132M [00:07<00:00, 20.5MB/s] 98%|█████████▊| 129M/132M [00:07<00:00, 21.0MB/s]100%|██████████| 132M/132M [00:07<00:00, 17.9MB/s]
Training r3d from scratch...
Training r3d from scratch...
Total params: 34.31M
MViT(
  (conv_proj): Conv3d(3, 96, kernel_size=(3, 7, 7), stride=(2, 4, 4), padding=(1, 3, 3))
  (pos_encoding): PositionalEncoding()
  (blocks): ModuleList(
    (0): MultiscaleBlock(
      (norm1): LayerNorm((96,), eps=1e-06, elementwise_affine=True)
      (norm2): LayerNorm((96,), eps=1e-06, elementwise_affine=True)
      (attn): MultiscaleAttention(
        (qkv): Linear(in_features=96, out_features=288, bias=True)
        (project): Sequential(
          (0): Linear(in_features=96, out_features=96, bias=True)
        )
        (pool_q): Pool(
          (pool): Conv3d(96, 96, kernel_size=(3, 3, 3), stride=(1, 1, 1), padding=(1, 1, 1), groups=96, bias=False)
          (norm_act): Sequential(
            (0): LayerNorm((96,), eps=1e-06, elementwise_affine=True)
          )
        )
        (pool_k): Pool(
          (pool): Conv3d(96, 96, kernel_size=(3, 3, 3), stride=(1, 8, 8), padding=(1, 1, 1), groups=96, bias=False)
          (norm_act): Sequential(
            (0): LayerNorm((96,), eps=1e-06, elementwise_affine=True)
          )
        )
        (pool_v): Pool(
          (pool): Conv3d(96, 96, kernel_size=(3, 3, 3), stride=(1, 8, 8), padding=(1, 1, 1), groups=96, bias=False)
          (norm_act): Sequential(
            (0): LayerNorm((96,), eps=1e-06, elementwise_affine=True)
          )
        )
      )
      (mlp): MLP(
        (0): Linear(in_features=96, out_features=384, bias=True)
        (1): GELU(approximate='none')
        (2): Dropout(p=0.0, inplace=False)
        (3): Linear(in_features=384, out_features=96, bias=True)
        (4): Dropout(p=0.0, inplace=False)
      )
      (stochastic_depth): StochasticDepth(p=0.0, mode=row)
    )
    (1): MultiscaleBlock(
      (pool_skip): Pool(
        (pool): MaxPool3d(kernel_size=[1, 3, 3], stride=[1, 2, 2], padding=[0, 1, 1], dilation=1, ceil_mode=False)
      )
      (norm1): LayerNorm((96,), eps=1e-06, elementwise_affine=True)
      (norm2): LayerNorm((192,), eps=1e-06, elementwise_affine=True)
      (attn): MultiscaleAttention(
        (qkv): Linear(in_features=96, out_features=576, bias=True)
        (project): Sequential(
          (0): Linear(in_features=192, out_features=192, bias=True)
        )
        (pool_q): Pool(
          (pool): Conv3d(96, 96, kernel_size=(3, 3, 3), stride=(1, 2, 2), padding=(1, 1, 1), groups=96, bias=False)
          (norm_act): Sequential(
            (0): LayerNorm((96,), eps=1e-06, elementwise_affine=True)
          )
        )
        (pool_k): Pool(
          (pool): Conv3d(96, 96, kernel_size=(3, 3, 3), stride=(1, 4, 4), padding=(1, 1, 1), groups=96, bias=False)
          (norm_act): Sequential(
            (0): LayerNorm((96,), eps=1e-06, elementwise_affine=True)
          )
        )
        (pool_v): Pool(
          (pool): Conv3d(96, 96, kernel_size=(3, 3, 3), stride=(1, 4, 4), padding=(1, 1, 1), groups=96, bias=False)
          (norm_act): Sequential(
            (0): LayerNorm((96,), eps=1e-06, elementwise_affine=True)
          )
        )
      )
      (mlp): MLP(
        (0): Linear(in_features=192, out_features=768, bias=True)
        (1): GELU(approximate='none')
        (2): Dropout(p=0.0, inplace=False)
        (3): Linear(in_features=768, out_features=192, bias=True)
        (4): Dropout(p=0.0, inplace=False)
      )
      (stochastic_depth): StochasticDepth(p=0.013333333333333334, mode=row)
      (project): Linear(in_features=96, out_features=192, bias=True)
    )
    (2): MultiscaleBlock(
      (norm1): LayerNorm((192,), eps=1e-06, elementwise_affine=True)
      (norm2): LayerNorm((192,), eps=1e-06, elementwise_affine=True)
      (attn): MultiscaleAttention(
        (qkv): Linear(in_features=192, out_features=576, bias=True)
        (project): Sequential(
          (0): Linear(in_features=192, out_features=192, bias=True)
        )
        (pool_q): Pool(
          (pool): Conv3d(96, 96, kernel_size=(3, 3, 3), stride=(1, 1, 1), padding=(1, 1, 1), groups=96, bias=False)
          (norm_act): Sequential(
            (0): LayerNorm((96,), eps=1e-06, elementwise_affine=True)
          )
        )
        (pool_k): Pool(
          (pool): Conv3d(96, 96, kernel_size=(3, 3, 3), stride=(1, 4, 4), padding=(1, 1, 1), groups=96, bias=False)
          (norm_act): Sequential(
            (0): LayerNorm((96,), eps=1e-06, elementwise_affine=True)
          )
        )
        (pool_v): Pool(
          (pool): Conv3d(96, 96, kernel_size=(3, 3, 3), stride=(1, 4, 4), padding=(1, 1, 1), groups=96, bias=False)
          (norm_act): Sequential(
            (0): LayerNorm((96,), eps=1e-06, elementwise_affine=True)
          )
        )
      )
      (mlp): MLP(
        (0): Linear(in_features=192, out_features=768, bias=True)
        (1): GELU(approximate='none')
        (2): Dropout(p=0.0, inplace=False)
        (3): Linear(in_features=768, out_features=192, bias=True)
        (4): Dropout(p=0.0, inplace=False)
      )
      (stochastic_depth): StochasticDepth(p=0.02666666666666667, mode=row)
    )
    (3): MultiscaleBlock(
      (pool_skip): Pool(
        (pool): MaxPool3d(kernel_size=[1, 3, 3], stride=[1, 2, 2], padding=[0, 1, 1], dilation=1, ceil_mode=False)
      )
      (norm1): LayerNorm((192,), eps=1e-06, elementwise_affine=True)
      (norm2): LayerNorm((384,), eps=1e-06, elementwise_affine=True)
      (attn): MultiscaleAttention(
        (qkv): Linear(in_features=192, out_features=1152, bias=True)
        (project): Sequential(
          (0): Linear(in_features=384, out_features=384, bias=True)
        )
        (pool_q): Pool(
          (pool): Conv3d(96, 96, kernel_size=(3, 3, 3), stride=(1, 2, 2), padding=(1, 1, 1), groups=96, bias=False)
          (norm_act): Sequential(
            (0): LayerNorm((96,), eps=1e-06, elementwise_affine=True)
          )
        )
        (pool_k): Pool(
          (pool): Conv3d(96, 96, kernel_size=(3, 3, 3), stride=(1, 2, 2), padding=(1, 1, 1), groups=96, bias=False)
          (norm_act): Sequential(
            (0): LayerNorm((96,), eps=1e-06, elementwise_affine=True)
          )
        )
        (pool_v): Pool(
          (pool): Conv3d(96, 96, kernel_size=(3, 3, 3), stride=(1, 2, 2), padding=(1, 1, 1), groups=96, bias=False)
          (norm_act): Sequential(
            (0): LayerNorm((96,), eps=1e-06, elementwise_affine=True)
          )
        )
      )
      (mlp): MLP(
        (0): Linear(in_features=384, out_features=1536, bias=True)
        (1): GELU(approximate='none')
        (2): Dropout(p=0.0, inplace=False)
        (3): Linear(in_features=1536, out_features=384, bias=True)
        (4): Dropout(p=0.0, inplace=False)
      )
      (stochastic_depth): StochasticDepth(p=0.04000000000000001, mode=row)
      (project): Linear(in_features=192, out_features=384, bias=True)
    )
    (4): MultiscaleBlock(
      (norm1): LayerNorm((384,), eps=1e-06, elementwise_affine=True)
      (norm2): LayerNorm((384,), eps=1e-06, elementwise_affine=True)
      (attn): MultiscaleAttention(
        (qkv): Linear(in_features=384, out_features=1152, bias=True)
        (project): Sequential(
          (0): Linear(in_features=384, out_features=384, bias=True)
        )
        (pool_q): Pool(
          (pool): Conv3d(96, 96, kernel_size=(3, 3, 3), stride=(1, 1, 1), padding=(1, 1, 1), groups=96, bias=False)
          (norm_act): Sequential(
            (0): LayerNorm((96,), eps=1e-06, elementwise_affine=True)
          )
        )
        (pool_k): Pool(
          (pool): Conv3d(96, 96, kernel_size=(3, 3, 3), stride=(1, 2, 2), padding=(1, 1, 1), groups=96, bias=False)
          (norm_act): Sequential(
            (0): LayerNorm((96,), eps=1e-06, elementwise_affine=True)
          )
        )
        (pool_v): Pool(
          (pool): Conv3d(96, 96, kernel_size=(3, 3, 3), stride=(1, 2, 2), padding=(1, 1, 1), groups=96, bias=False)
          (norm_act): Sequential(
            (0): LayerNorm((96,), eps=1e-06, elementwise_affine=True)
          )
        )
      )
      (mlp): MLP(
        (0): Linear(in_features=384, out_features=1536, bias=True)
        (1): GELU(approximate='none')
        (2): Dropout(p=0.0, inplace=False)
        (3): Linear(in_features=1536, out_features=384, bias=True)
        (4): Dropout(p=0.0, inplace=False)
      )
      (stochastic_depth): StochasticDepth(p=0.05333333333333334, mode=row)
    )
    (5): MultiscaleBlock(
      (norm1): LayerNorm((384,), eps=1e-06, elementwise_affine=True)
      (norm2): LayerNorm((384,), eps=1e-06, elementwise_affine=True)
      (attn): MultiscaleAttention(
        (qkv): Linear(in_features=384, out_features=1152, bias=True)
        (project): Sequential(
          (0): Linear(in_features=384, out_features=384, bias=True)
        )
        (pool_q): Pool(
          (pool): Conv3d(96, 96, kernel_size=(3, 3, 3), stride=(1, 1, 1), padding=(1, 1, 1), groups=96, bias=False)
          (norm_act): Sequential(
            (0): LayerNorm((96,), eps=1e-06, elementwise_affine=True)
          )
        )
        (pool_k): Pool(
          (pool): Conv3d(96, 96, kernel_size=(3, 3, 3), stride=(1, 2, 2), padding=(1, 1, 1), groups=96, bias=False)
          (norm_act): Sequential(
            (0): LayerNorm((96,), eps=1e-06, elementwise_affine=True)
          )
        )
        (pool_v): Pool(
          (pool): Conv3d(96, 96, kernel_size=(3, 3, 3), stride=(1, 2, 2), padding=(1, 1, 1), groups=96, bias=False)
          (norm_act): Sequential(
            (0): LayerNorm((96,), eps=1e-06, elementwise_affine=True)
          )
        )
      )
      (mlp): MLP(
        (0): Linear(in_features=384, out_features=1536, bias=True)
        (1): GELU(approximate='none')
        (2): Dropout(p=0.0, inplace=False)
        (3): Linear(in_features=1536, out_features=384, bias=True)
        (4): Dropout(p=0.0, inplace=False)
      )
      (stochastic_depth): StochasticDepth(p=0.06666666666666667, mode=row)
    )
    (6): MultiscaleBlock(
      (norm1): LayerNorm((384,), eps=1e-06, elementwise_affine=True)
      (norm2): LayerNorm((384,), eps=1e-06, elementwise_affine=True)
      (attn): MultiscaleAttention(
        (qkv): Linear(in_features=384, out_features=1152, bias=True)
        (project): Sequential(
          (0): Linear(in_features=384, out_features=384, bias=True)
        )
        (pool_q): Pool(
          (pool): Conv3d(96, 96, kernel_size=(3, 3, 3), stride=(1, 1, 1), padding=(1, 1, 1), groups=96, bias=False)
          (norm_act): Sequential(
            (0): LayerNorm((96,), eps=1e-06, elementwise_affine=True)
          )
        )
        (pool_k): Pool(
          (pool): Conv3d(96, 96, kernel_size=(3, 3, 3), stride=(1, 2, 2), padding=(1, 1, 1), groups=96, bias=False)
          (norm_act): Sequential(
            (0): LayerNorm((96,), eps=1e-06, elementwise_affine=True)
          )
        )
        (pool_v): Pool(
          (pool): Conv3d(96, 96, kernel_size=(3, 3, 3), stride=(1, 2, 2), padding=(1, 1, 1), groups=96, bias=False)
          (norm_act): Sequential(
            (0): LayerNorm((96,), eps=1e-06, elementwise_affine=True)
          )
        )
      )
      (mlp): MLP(
        (0): Linear(in_features=384, out_features=1536, bias=True)
        (1): GELU(approximate='none')
        (2): Dropout(p=0.0, inplace=False)
        (3): Linear(in_features=1536, out_features=384, bias=True)
        (4): Dropout(p=0.0, inplace=False)
      )
      (stochastic_depth): StochasticDepth(p=0.08000000000000002, mode=row)
    )
    (7): MultiscaleBlock(
      (norm1): LayerNorm((384,), eps=1e-06, elementwise_affine=True)
      (norm2): LayerNorm((384,), eps=1e-06, elementwise_affine=True)
      (attn): MultiscaleAttention(
        (qkv): Linear(in_features=384, out_features=1152, bias=True)
        (project): Sequential(
          (0): Linear(in_features=384, out_features=384, bias=True)
        )
        (pool_q): Pool(
          (pool): Conv3d(96, 96, kernel_size=(3, 3, 3), stride=(1, 1, 1), padding=(1, 1, 1), groups=96, bias=False)
          (norm_act): Sequential(
            (0): LayerNorm((96,), eps=1e-06, elementwise_affine=True)
          )
        )
        (pool_k): Pool(
          (pool): Conv3d(96, 96, kernel_size=(3, 3, 3), stride=(1, 2, 2), padding=(1, 1, 1), groups=96, bias=False)
          (norm_act): Sequential(
            (0): LayerNorm((96,), eps=1e-06, elementwise_affine=True)
          )
        )
        (pool_v): Pool(
          (pool): Conv3d(96, 96, kernel_size=(3, 3, 3), stride=(1, 2, 2), padding=(1, 1, 1), groups=96, bias=False)
          (norm_act): Sequential(
            (0): LayerNorm((96,), eps=1e-06, elementwise_affine=True)
          )
        )
      )
      (mlp): MLP(
        (0): Linear(in_features=384, out_features=1536, bias=True)
        (1): GELU(approximate='none')
        (2): Dropout(p=0.0, inplace=False)
        (3): Linear(in_features=1536, out_features=384, bias=True)
        (4): Dropout(p=0.0, inplace=False)
      )
      (stochastic_depth): StochasticDepth(p=0.09333333333333334, mode=row)
    )
    (8): MultiscaleBlock(
      (norm1): LayerNorm((384,), eps=1e-06, elementwise_affine=True)
      (norm2): LayerNorm((384,), eps=1e-06, elementwise_affine=True)
      (attn): MultiscaleAttention(
        (qkv): Linear(in_features=384, out_features=1152, bias=True)
        (project): Sequential(
          (0): Linear(in_features=384, out_features=384, bias=True)
        )
        (pool_q): Pool(
          (pool): Conv3d(96, 96, kernel_size=(3, 3, 3), stride=(1, 1, 1), padding=(1, 1, 1), groups=96, bias=False)
          (norm_act): Sequential(
            (0): LayerNorm((96,), eps=1e-06, elementwise_affine=True)
          )
        )
        (pool_k): Pool(
          (pool): Conv3d(96, 96, kernel_size=(3, 3, 3), stride=(1, 2, 2), padding=(1, 1, 1), groups=96, bias=False)
          (norm_act): Sequential(
            (0): LayerNorm((96,), eps=1e-06, elementwise_affine=True)
          )
        )
        (pool_v): Pool(
          (pool): Conv3d(96, 96, kernel_size=(3, 3, 3), stride=(1, 2, 2), padding=(1, 1, 1), groups=96, bias=False)
          (norm_act): Sequential(
            (0): LayerNorm((96,), eps=1e-06, elementwise_affine=True)
          )
        )
      )
      (mlp): MLP(
        (0): Linear(in_features=384, out_features=1536, bias=True)
        (1): GELU(approximate='none')
        (2): Dropout(p=0.0, inplace=False)
        (3): Linear(in_features=1536, out_features=384, bias=True)
        (4): Dropout(p=0.0, inplace=False)
      )
      (stochastic_depth): StochasticDepth(p=0.10666666666666667, mode=row)
    )
    (9): MultiscaleBlock(
      (norm1): LayerNorm((384,), eps=1e-06, elementwise_affine=True)
      (norm2): LayerNorm((384,), eps=1e-06, elementwise_affine=True)
      (attn): MultiscaleAttention(
        (qkv): Linear(in_features=384, out_features=1152, bias=True)
        (project): Sequential(
          (0): Linear(in_features=384, out_features=384, bias=True)
        )
        (pool_q): Pool(
          (pool): Conv3d(96, 96, kernel_size=(3, 3, 3), stride=(1, 1, 1), padding=(1, 1, 1), groups=96, bias=False)
          (norm_act): Sequential(
            (0): LayerNorm((96,), eps=1e-06, elementwise_affine=True)
          )
        )
        (pool_k): Pool(
          (pool): Conv3d(96, 96, kernel_size=(3, 3, 3), stride=(1, 2, 2), padding=(1, 1, 1), groups=96, bias=False)
          (norm_act): Sequential(
            (0): LayerNorm((96,), eps=1e-06, elementwise_affine=True)
          )
        )
        (pool_v): Pool(
          (pool): Conv3d(96, 96, kernel_size=(3, 3, 3), stride=(1, 2, 2), padding=(1, 1, 1), groups=96, bias=False)
          (norm_act): Sequential(
            (0): LayerNorm((96,), eps=1e-06, elementwise_affine=True)
          )
        )
      )
      (mlp): MLP(
        (0): Linear(in_features=384, out_features=1536, bias=True)
        (1): GELU(approximate='none')
        (2): Dropout(p=0.0, inplace=False)
        (3): Linear(in_features=1536, out_features=384, bias=True)
        (4): Dropout(p=0.0, inplace=False)
      )
      (stochastic_depth): StochasticDepth(p=0.12000000000000001, mode=row)
    )
    (10): MultiscaleBlock(
      (norm1): LayerNorm((384,), eps=1e-06, elementwise_affine=True)
      (norm2): LayerNorm((384,), eps=1e-06, elementwise_affine=True)
      (attn): MultiscaleAttention(
        (qkv): Linear(in_features=384, out_features=1152, bias=True)
        (project): Sequential(
          (0): Linear(in_features=384, out_features=384, bias=True)
        )
        (pool_q): Pool(
          (pool): Conv3d(96, 96, kernel_size=(3, 3, 3), stride=(1, 1, 1), padding=(1, 1, 1), groups=96, bias=False)
          (norm_act): Sequential(
            (0): LayerNorm((96,), eps=1e-06, elementwise_affine=True)
          )
        )
        (pool_k): Pool(
          (pool): Conv3d(96, 96, kernel_size=(3, 3, 3), stride=(1, 2, 2), padding=(1, 1, 1), groups=96, bias=False)
          (norm_act): Sequential(
            (0): LayerNorm((96,), eps=1e-06, elementwise_affine=True)
          )
        )
        (pool_v): Pool(
          (pool): Conv3d(96, 96, kernel_size=(3, 3, 3), stride=(1, 2, 2), padding=(1, 1, 1), groups=96, bias=False)
          (norm_act): Sequential(
            (0): LayerNorm((96,), eps=1e-06, elementwise_affine=True)
          )
        )
      )
      (mlp): MLP(
        (0): Linear(in_features=384, out_features=1536, bias=True)
        (1): GELU(approximate='none')
        (2): Dropout(p=0.0, inplace=False)
        (3): Linear(in_features=1536, out_features=384, bias=True)
        (4): Dropout(p=0.0, inplace=False)
      )
      (stochastic_depth): StochasticDepth(p=0.13333333333333333, mode=row)
    )
    (11): MultiscaleBlock(
      (norm1): LayerNorm((384,), eps=1e-06, elementwise_affine=True)
      (norm2): LayerNorm((384,), eps=1e-06, elementwise_affine=True)
      (attn): MultiscaleAttention(
        (qkv): Linear(in_features=384, out_features=1152, bias=True)
        (project): Sequential(
          (0): Linear(in_features=384, out_features=384, bias=True)
        )
        (pool_q): Pool(
          (pool): Conv3d(96, 96, kernel_size=(3, 3, 3), stride=(1, 1, 1), padding=(1, 1, 1), groups=96, bias=False)
          (norm_act): Sequential(
            (0): LayerNorm((96,), eps=1e-06, elementwise_affine=True)
          )
        )
        (pool_k): Pool(
          (pool): Conv3d(96, 96, kernel_size=(3, 3, 3), stride=(1, 2, 2), padding=(1, 1, 1), groups=96, bias=False)
          (norm_act): Sequential(
            (0): LayerNorm((96,), eps=1e-06, elementwise_affine=True)
          )
        )
        (pool_v): Pool(
          (pool): Conv3d(96, 96, kernel_size=(3, 3, 3), stride=(1, 2, 2), padding=(1, 1, 1), groups=96, bias=False)
          (norm_act): Sequential(
            (0): LayerNorm((96,), eps=1e-06, elementwise_affine=True)
          )
        )
      )
      (mlp): MLP(
        (0): Linear(in_features=384, out_features=1536, bias=True)
        (1): GELU(approximate='none')
        (2): Dropout(p=0.0, inplace=False)
        (3): Linear(in_features=1536, out_features=384, bias=True)
        (4): Dropout(p=0.0, inplace=False)
      )
      (stochastic_depth): StochasticDepth(p=0.14666666666666667, mode=row)
    )
    (12): MultiscaleBlock(
      (norm1): LayerNorm((384,), eps=1e-06, elementwise_affine=True)
      (norm2): LayerNorm((384,), eps=1e-06, elementwise_affine=True)
      (attn): MultiscaleAttention(
        (qkv): Linear(in_features=384, out_features=1152, bias=True)
        (project): Sequential(
          (0): Linear(in_features=384, out_features=384, bias=True)
        )
        (pool_q): Pool(
          (pool): Conv3d(96, 96, kernel_size=(3, 3, 3), stride=(1, 1, 1), padding=(1, 1, 1), groups=96, bias=False)
          (norm_act): Sequential(
            (0): LayerNorm((96,), eps=1e-06, elementwise_affine=True)
          )
        )
        (pool_k): Pool(
          (pool): Conv3d(96, 96, kernel_size=(3, 3, 3), stride=(1, 2, 2), padding=(1, 1, 1), groups=96, bias=False)
          (norm_act): Sequential(
            (0): LayerNorm((96,), eps=1e-06, elementwise_affine=True)
          )
        )
        (pool_v): Pool(
          (pool): Conv3d(96, 96, kernel_size=(3, 3, 3), stride=(1, 2, 2), padding=(1, 1, 1), groups=96, bias=False)
          (norm_act): Sequential(
            (0): LayerNorm((96,), eps=1e-06, elementwise_affine=True)
          )
        )
      )
      (mlp): MLP(
        (0): Linear(in_features=384, out_features=1536, bias=True)
        (1): GELU(approximate='none')
        (2): Dropout(p=0.0, inplace=False)
        (3): Linear(in_features=1536, out_features=384, bias=True)
        (4): Dropout(p=0.0, inplace=False)
      )
      (stochastic_depth): StochasticDepth(p=0.16000000000000003, mode=row)
    )
    (13): MultiscaleBlock(
      (norm1): LayerNorm((384,), eps=1e-06, elementwise_affine=True)
      (norm2): LayerNorm((384,), eps=1e-06, elementwise_affine=True)
      (attn): MultiscaleAttention(
        (qkv): Linear(in_features=384, out_features=1152, bias=True)
        (project): Sequential(
          (0): Linear(in_features=384, out_features=384, bias=True)
        )
        (pool_q): Pool(
          (pool): Conv3d(96, 96, kernel_size=(3, 3, 3), stride=(1, 1, 1), padding=(1, 1, 1), groups=96, bias=False)
          (norm_act): Sequential(
            (0): LayerNorm((96,), eps=1e-06, elementwise_affine=True)
          )
        )
        (pool_k): Pool(
          (pool): Conv3d(96, 96, kernel_size=(3, 3, 3), stride=(1, 2, 2), padding=(1, 1, 1), groups=96, bias=False)
          (norm_act): Sequential(
            (0): LayerNorm((96,), eps=1e-06, elementwise_affine=True)
          )
        )
        (pool_v): Pool(
          (pool): Conv3d(96, 96, kernel_size=(3, 3, 3), stride=(1, 2, 2), padding=(1, 1, 1), groups=96, bias=False)
          (norm_act): Sequential(
            (0): LayerNorm((96,), eps=1e-06, elementwise_affine=True)
          )
        )
      )
      (mlp): MLP(
        (0): Linear(in_features=384, out_features=1536, bias=True)
        (1): GELU(approximate='none')
        (2): Dropout(p=0.0, inplace=False)
        (3): Linear(in_features=1536, out_features=384, bias=True)
        (4): Dropout(p=0.0, inplace=False)
      )
      (stochastic_depth): StochasticDepth(p=0.17333333333333334, mode=row)
    )
    (14): MultiscaleBlock(
      (pool_skip): Pool(
        (pool): MaxPool3d(kernel_size=[1, 3, 3], stride=[1, 2, 2], padding=[0, 1, 1], dilation=1, ceil_mode=False)
      )
      (norm1): LayerNorm((384,), eps=1e-06, elementwise_affine=True)
      (norm2): LayerNorm((768,), eps=1e-06, elementwise_affine=True)
      (attn): MultiscaleAttention(
        (qkv): Linear(in_features=384, out_features=2304, bias=True)
        (project): Sequential(
          (0): Linear(in_features=768, out_features=768, bias=True)
        )
        (pool_q): Pool(
          (pool): Conv3d(96, 96, kernel_size=(3, 3, 3), stride=(1, 2, 2), padding=(1, 1, 1), groups=96, bias=False)
          (norm_act): Sequential(
            (0): LayerNorm((96,), eps=1e-06, elementwise_affine=True)
          )
        )
        (pool_k): Pool(
          (pool): Conv3d(96, 96, kernel_size=(3, 3, 3), stride=(1, 1, 1), padding=(1, 1, 1), groups=96, bias=False)
          (norm_act): Sequential(
            (0): LayerNorm((96,), eps=1e-06, elementwise_affine=True)
          )
        )
        (pool_v): Pool(
          (pool): Conv3d(96, 96, kernel_size=(3, 3, 3), stride=(1, 1, 1), padding=(1, 1, 1), groups=96, bias=False)
          (norm_act): Sequential(
            (0): LayerNorm((96,), eps=1e-06, elementwise_affine=True)
          )
        )
      )
      (mlp): MLP(
        (0): Linear(in_features=768, out_features=3072, bias=True)
        (1): GELU(approximate='none')
        (2): Dropout(p=0.0, inplace=False)
        (3): Linear(in_features=3072, out_features=768, bias=True)
        (4): Dropout(p=0.0, inplace=False)
      )
      (stochastic_depth): StochasticDepth(p=0.18666666666666668, mode=row)
      (project): Linear(in_features=384, out_features=768, bias=True)
    )
    (15): MultiscaleBlock(
      (norm1): LayerNorm((768,), eps=1e-06, elementwise_affine=True)
      (norm2): LayerNorm((768,), eps=1e-06, elementwise_affine=True)
      (attn): MultiscaleAttention(
        (qkv): Linear(in_features=768, out_features=2304, bias=True)
        (project): Sequential(
          (0): Linear(in_features=768, out_features=768, bias=True)
        )
        (pool_q): Pool(
          (pool): Conv3d(96, 96, kernel_size=(3, 3, 3), stride=(1, 1, 1), padding=(1, 1, 1), groups=96, bias=False)
          (norm_act): Sequential(
            (0): LayerNorm((96,), eps=1e-06, elementwise_affine=True)
          )
        )
        (pool_k): Pool(
          (pool): Conv3d(96, 96, kernel_size=(3, 3, 3), stride=(1, 1, 1), padding=(1, 1, 1), groups=96, bias=False)
          (norm_act): Sequential(
            (0): LayerNorm((96,), eps=1e-06, elementwise_affine=True)
          )
        )
        (pool_v): Pool(
          (pool): Conv3d(96, 96, kernel_size=(3, 3, 3), stride=(1, 1, 1), padding=(1, 1, 1), groups=96, bias=False)
          (norm_act): Sequential(
            (0): LayerNorm((96,), eps=1e-06, elementwise_affine=True)
          )
        )
      )
      (mlp): MLP(
        (0): Linear(in_features=768, out_features=3072, bias=True)
        (1): GELU(approximate='none')
        (2): Dropout(p=0.0, inplace=False)
        (3): Linear(in_features=3072, out_features=768, bias=True)
        (4): Dropout(p=0.0, inplace=False)
      )
      (stochastic_depth): StochasticDepth(p=0.2, mode=row)
    )
  )
  (norm): LayerNorm((768,), eps=1e-06, elementwise_affine=True)
  (head): Sequential(
    (0): Dropout(p=0.5, inplace=True)
    (1): Linear(in_features=768, out_features=101, bias=True)
  )
)


Training model on ucf101 dataset...
False False
Preprocessing of ucf101 dataset, this will take long, but it will be done only once.
Preprocessing finished.
Number of train videos: 8460
Number of val videos: 2159
Number of test videos: 2701
torch.Size([20, 3, 16, 224, 224]) torch.Size([20])


  0%|          | 0/423 [00:00<?, ?it/s]  0%|      
…
